…
threshold_loss_scale=1.0, tokenizer=None, total_num_update=200, train_subset='train', truncate_sequence=False, update_freq=[1], use_bmuf=False, user_dir=None, valid_subset='valid', validate_interval=1, warmup_updates=12, weight_decay=0.1)
| [input] dictionary: 50265 types
| [label] dictionary: 9 types
| loaded 56 examples from: CB-bin/input0/valid
| loaded 56 examples from: CB-bin/input1/valid
| loaded 56 examples from: CB-bin/label/valid
| Loaded valid with #samples: 56
RobertaModel(
  (decoder): RobertaEncoder(
    (sentence_encoder): TransformerSentenceEncoder(
      (embed_tokens): Embedding(50265, 1024, padding_idx=1)
      (embed_positions): LearnedPositionalEmbedding(514, 1024, padding_idx=1)
      (layers): ModuleList(
        (0): TransformerSentenceEncoderLayer(
          (self_attn): MultiheadAttention(
            (out_proj): Linear(in_features=1024, out_features=1024, bias=True)
          )
          (self_attn_layer_norm): LayerNorm(torch.Size([1024]), eps=1e-05, elementwise_affine=True)
          (fc1): Linear(in_features=1024, out_features=4096, bias=True)
          (fc2): Linear(in_features=4096, out_features=1024, bias=True)
          (final_layer_norm): LayerNorm(torch.Size([1024]), eps=1e-05, elementwise_affine=True)
        )
        (1): TransformerSentenceEncoderLayer(
          (self_attn): MultiheadAttention(
            (out_proj): Linear(in_features=1024, out_features=1024, bias=True)
          )
          (self_attn_layer_norm): LayerNorm(torch.Size([1024]), eps=1e-05, elementwise_affine=True)
          (fc1): Linear(in_features=1024, out_features=4096, bias=True)
          (fc2): Linear(in_features=4096, out_features=1024, bias=True)
          (final_layer_norm): LayerNorm(torch.Size([1024]), eps=1e-05, elementwise_affine=True)
        )
        (2): TransformerSentenceEncoderLayer(
          (self_attn): MultiheadAttention(
            (out_proj): Linear(in_features=1024, out_features=1024, bias=True)
          )
          (self_attn_layer_norm): LayerNorm(torch.Size([1024]), eps=1e-05, elementwise_affine=True)
          (fc1): Linear(in_features=1024, out_features=4096, bias=True)
          (fc2): Linear(in_features=4096, out_features=1024, bias=True)
          (final_layer_norm): LayerNorm(torch.Size([1024]), eps=1e-05, elementwise_affine=True)
        )
        (3): TransformerSentenceEncoderLayer(
          (self_attn): MultiheadAttention(
            (out_proj): Linear(in_features=1024, out_features=1024, bias=True)
          )
          (self_attn_layer_norm): LayerNorm(torch.Size([1024]), eps=1e-05, elementwise_affine=True)
          (fc1): Linear(in_features=1024, out_features=4096, bias=True)
          (fc2): Linear(in_features=4096, out_features=1024, bias=True)
          (final_layer_norm): LayerNorm(torch.Size([1024]), eps=1e-05, elementwise_affine=True)
        )
        (4): TransformerSentenceEncoderLayer(
          (self_attn): MultiheadAttention(
            (out_proj): Linear(in_features=1024, out_features=1024, bias=True)
          )
          (self_attn_layer_norm): LayerNorm(torch.Size([1024]), eps=1e-05, elementwise_affine=True)
          (fc1): Linear(in_features=1024, out_features=4096, bias=True)
          (fc2): Linear(in_features=4096, out_features=1024, bias=True)
          (final_layer_norm): LayerNorm(torch.Size([1024]), eps=1e-05, elementwise_affine=True)
        )
        (5): TransformerSentenceEncoderLayer(
          (self_attn): MultiheadAttention(
            (out_proj): Linear(in_features=1024, out_features=1024, bias=True)
          )
          (self_attn_layer_norm): LayerNorm(torch.Size([1024]), eps=1e-05, elementwise_affine=True)
          (fc1): Linear(in_features=1024, out_features=4096, bias=True)
          (fc2): Linear(in_features=4096, out_features=1024, bias=True)
          (final_layer_norm): LayerNorm(torch.Size([1024]), eps=1e-05, elementwise_affine=True)
        )
        (6): TransformerSentenceEncoderLayer(
          (self_attn): MultiheadAttention(
            (out_proj): Linear(in_features=1024, out_features=1024, bias=True)
          )
          (self_attn_layer_norm): LayerNorm(torch.Size([1024]), eps=1e-05, elementwise_affine=True)
          (fc1): Linear(in_features=1024, out_features=4096, bias=True)
          (fc2): Linear(in_features=4096, out_features=1024, bias=True)
          (final_layer_norm): LayerNorm(torch.Size([1024]), eps=1e-05, elementwise_affine=True)
        )
        (7): TransformerSentenceEncoderLayer(
          (self_attn): MultiheadAttention(
            (out_proj): Linear(in_features=1024, out_features=1024, bias=True)
          )
          (self_attn_layer_norm): LayerNorm(torch.Size([1024]), eps=1e-05, elementwise_affine=True)
          (fc1): Linear(in_features=1024, out_features=4096, bias=True)
          (fc2): Linear(in_features=4096, out_features=1024, bias=True)
          (final_layer_norm): LayerNorm(torch.Size([1024]), eps=1e-05, elementwise_affine=True)
        )
        (8): TransformerSentenceEncoderLayer(
          (self_attn): MultiheadAttention(
            (out_proj): Linear(in_features=1024, out_features=1024, bias=True)
          )
          (self_attn_layer_norm): LayerNorm(torch.Size([1024]), eps=1e-05, elementwise_affine=True)
          (fc1): Linear(in_features=1024, out_features=4096, bias=True)
          (fc2): Linear(in_features=4096, out_features=1024, bias=True)
          (final_layer_norm): LayerNorm(torch.Size([1024]), eps=1e-05, elementwise_affine=True)
        )
        (9): TransformerSentenceEncoderLayer(
          (self_attn): MultiheadAttention(
            (out_proj): Linear(in_features=1024, out_features=1024, bias=True)
          )
          (self_attn_layer_norm): LayerNorm(torch.Size([1024]), eps=1e-05, elementwise_affine=True)
          (fc1): Linear(in_features=1024, out_features=4096, bias=True)
          (fc2): Linear(in_features=4096, out_features=1024, bias=True)
          (final_layer_norm): LayerNorm(torch.Size([1024]), eps=1e-05, elementwise_affine=True)
        )
        (10): TransformerSentenceEncoderLayer(
          (self_attn): MultiheadAttention(
            (out_proj): Linear(in_features=1024, out_features=1024, bias=True)
          )
          (self_attn_layer_norm): LayerNorm(torch.Size([1024]), eps=1e-05, elementwise_affine=True)
          (fc1): Linear(in_features=1024, out_features=4096, bias=True)
          (fc2): Linear(in_features=4096, out_features=1024, bias=True)
          (final_layer_norm): LayerNorm(torch.Size([1024]), eps=1e-05, elementwise_affine=True)
        )
        (11): TransformerSentenceEncoderLayer(
          (self_attn): MultiheadAttention(
            (out_proj): Linear(in_features=1024, out_features=1024, bias=True)
          )
          (self_attn_layer_norm): LayerNorm(torch.Size([1024]), eps=1e-05, elementwise_affine=True)
          (fc1): Linear(in_features=1024, out_features=4096, bias=True)
          (fc2): Linear(in_features=4096, out_features=1024, bias=True)
          (final_layer_norm): LayerNorm(torch.Size([1024]), eps=1e-05, elementwise_affine=True)
        )
        (12): TransformerSentenceEncoderLayer(
          (self_attn): MultiheadAttention(
            (out_proj): Linear(in_features=1024, out_features=1024, bias=True)
          )
          (self_attn_layer_norm): LayerNorm(torch.Size([1024]), eps=1e-05, elementwise_affine=True)
          (fc1): Linear(in_features=1024, out_features=4096, bias=True)
          (fc2): Linear(in_features=4096, out_features=1024, bias=True)
          (final_layer_norm): LayerNorm(torch.Size([1024]), eps=1e-05, elementwise_affine=True)
        )
        (13): TransformerSentenceEncoderLayer(
          (self_attn): MultiheadAttention(
            (out_proj): Linear(in_features=1024, out_features=1024, bias=True)
          )
          (self_attn_layer_norm): LayerNorm(torch.Size([1024]), eps=1e-05, elementwise_affine=True)
          (fc1): Linear(in_features=1024, out_features=4096, bias=True)
          (fc2): Linear(in_features=4096, out_features=1024, bias=True)
          (final_layer_norm): LayerNorm(torch.Size([1024]), eps=1e-05, elementwise_affine=True)
        )
        (14): TransformerSentenceEncoderLayer(
          (self_attn): MultiheadAttention(
            (out_proj): Linear(in_features=1024, out_features=1024, bias=True)
          )
          (self_attn_layer_norm): LayerNorm(torch.Size([1024]), eps=1e-05, elementwise_affine=True)
          (fc1): Linear(in_features=1024, out_features=4096, bias=True)
          (fc2): Linear(in_features=4096, out_features=1024, bias=True)
          (final_layer_norm): LayerNorm(torch.Size([1024]), eps=1e-05, elementwise_affine=True)
        )
        (15): TransformerSentenceEncoderLayer(
          (self_attn): MultiheadAttention(
            (out_proj): Linear(in_features=1024, out_features=1024, bias=True)
          )
          (self_attn_layer_norm): LayerNorm(torch.Size([1024]), eps=1e-05, elementwise_affine=True)
          (fc1): Linear(in_features=1024, out_features=4096, bias=True)
          (fc2): Linear(in_features=4096, out_features=1024, bias=True)
          (final_layer_norm): LayerNorm(torch.Size([1024]), eps=1e-05, elementwise_affine=True)
        )
        (16): TransformerSentenceEncoderLayer(
          (self_attn): MultiheadAttention(
            (out_proj): Linear(in_features=1024, out_features=1024, bias=True)
          )
          (self_attn_layer_norm): LayerNorm(torch.Size([1024]), eps=1e-05, elementwise_affine=True)
          (fc1): Linear(in_features=1024, out_features=4096, bias=True)
          (fc2): Linear(in_features=4096, out_features=1024, bias=True)
          (final_layer_norm): LayerNorm(torch.Size([1024]), eps=1e-05, elementwise_affine=True)
        )
        (17): TransformerSentenceEncoderLayer(
          (self_attn): MultiheadAttention(
            (out_proj): Linear(in_features=1024, out_features=1024, bias=True)
          )
          (self_attn_layer_norm): LayerNorm(torch.Size([1024]), eps=1e-05, elementwise_affine=True)
          (fc1): Linear(in_features=1024, out_features=4096, bias=True)
          (fc2): Linear(in_features=4096, out_features=1024, bias=True)
          (final_layer_norm): LayerNorm(torch.Size([1024]), eps=1e-05, elementwise_affine=True)
        )
        (18): TransformerSentenceEncoderLayer(
          (self_attn): MultiheadAttention(
            (out_proj): Linear(in_features=1024, out_features=1024, bias=True)
          )
          (self_attn_layer_norm): LayerNorm(torch.Size([1024]), eps=1e-05, elementwise_affine=True)
          (fc1): Linear(in_features=1024, out_features=4096, bias=True)
          (fc2): Linear(in_features=4096, out_features=1024, bias=True)
          (final_layer_norm): LayerNorm(torch.Size([1024]), eps=1e-05, elementwise_affine=True)
        )
        (19): TransformerSentenceEncoderLayer(
          (self_attn): MultiheadAttention(
            (out_proj): Linear(in_features=1024, out_features=1024, bias=True)
          )
          (self_attn_layer_norm): LayerNorm(torch.Size([1024]), eps=1e-05, elementwise_affine=True)
          (fc1): Linear(in_features=1024, out_features=4096, bias=True)
          (fc2): Linear(in_features=4096, out_features=1024, bias=True)
          (final_layer_norm): LayerNorm(torch.Size([1024]), eps=1e-05, elementwise_affine=True)
        )
        (20): TransformerSentenceEncoderLayer(
          (self_attn): MultiheadAttention(
            (out_proj): Linear(in_features=1024, out_features=1024, bias=True)
          )
          (self_attn_layer_norm): LayerNorm(torch.Size([1024]), eps=1e-05, elementwise_affine=True)
          (fc1): Linear(in_features=1024, out_features=4096, bias=True)
          (fc2): Linear(in_features=4096, out_features=1024, bias=True)
          (final_layer_norm): LayerNorm(torch.Size([1024]), eps=1e-05, elementwise_affine=True)
        )
        (21): TransformerSentenceEncoderLayer(
          (self_attn): MultiheadAttention(
            (out_proj): Linear(in_features=1024, out_features=1024, bias=True)
          )
          (self_attn_layer_norm): LayerNorm(torch.Size([1024]), eps=1e-05, elementwise_affine=True)
          (fc1): Linear(in_features=1024, out_features=4096, bias=True)
          (fc2): Linear(in_features=4096, out_features=1024, bias=True)
          (final_layer_norm): LayerNorm(torch.Size([1024]), eps=1e-05, elementwise_affine=True)
        )
        (22): TransformerSentenceEncoderLayer(
          (self_attn): MultiheadAttention(
            (out_proj): Linear(in_features=1024, out_features=1024, bias=True)
          )
          (self_attn_layer_norm): LayerNorm(torch.Size([1024]), eps=1e-05, elementwise_affine=True)
          (fc1): Linear(in_features=1024, out_features=4096, bias=True)
          (fc2): Linear(in_features=4096, out_features=1024, bias=True)
          (final_layer_norm): LayerNorm(torch.Size([1024]), eps=1e-05, elementwise_affine=True)
        )
        (23): TransformerSentenceEncoderLayer(
          (self_attn): MultiheadAttention(
            (out_proj): Linear(in_features=1024, out_features=1024, bias=True)
          )
          (self_attn_layer_norm): LayerNorm(torch.Size([1024]), eps=1e-05, elementwise_affine=True)
          (fc1): Linear(in_features=1024, out_features=4096, bias=True)
          (fc2): Linear(in_features=4096, out_features=1024, bias=True)
          (final_layer_norm): LayerNorm(torch.Size([1024]), eps=1e-05, elementwise_affine=True)
        )
      )
      (emb_layer_norm): LayerNorm(torch.Size([1024]), eps=1e-05, elementwise_affine=True)
    )
    (lm_head): RobertaLMHead(
      (dense): Linear(in_features=1024, out_features=1024, bias=True)
      (layer_norm): LayerNorm(torch.Size([1024]), eps=1e-05, elementwise_affine=True)
    )
  )
  (classification_heads): ModuleDict(
    (sentence_classification_head): RobertaClassificationHead(
      (dense): Linear(in_features=1024, out_features=1024, bias=True)
      (dropout): Dropout(p=0.0)
      (out_proj): Linear(in_features=1024, out_features=3, bias=True)
    )
  )
)
| model roberta_large, criterion SentencePredictionCriterion
| num. model params: 356463708 (num. trained: 356463708)
| training on 1 GPUs
| max tokens per GPU = 4400 and max sentences per GPU = 16
Overwriting classification_heads.sentence_classification_head.dense.weight
Overwriting classification_heads.sentence_classification_head.dense.bias
…
